…
2020-03-17 03:35:42.025402: I tensorflow/compiler/xla/service/service.cc:168] XLA service 0x4b935d0 executing computations on platform Host. Devices:
2020-03-17 03:35:42.025431: I tensorflow/compiler/xla/service/service.cc:175]   StreamExecutor device (0): Host, Default Version
----------------------------------------------
Loading Model : /cluster/home/bberabi/mlfhc/models/lstm/best_model_lstm_mitbih_976.h5
Model: "sequential_1"
_________________________________________________________________
Layer (type)                 Output Shape              Param #   
=================================================================
lstm_1 (LSTM)                (None, 187, 64)           16896     
_________________________________________________________________
lstm_2 (LSTM)                (None, 187, 64)           33024     
_________________________________________________________________
lstm_3 (LSTM)                (None, 64)                33024     
_________________________________________________________________
dense_1 (Dense)              (None, 64)                4160      
_________________________________________________________________
dense_2 (Dense)              (None, 64)                4160      
_________________________________________________________________
dense_3 (Dense)              (None, 5)                 325       
=================================================================
Total params: 91,589
Trainable params: 91,589
Non-trainable params: 0
_________________________________________________________________
Model: "sequential_1"
_________________________________________________________________
Layer (type)                 Output Shape              Param #   
=================================================================
lstm_1 (LSTM)                (None, 187, 64)           16896     
_________________________________________________________________
lstm_2 (LSTM)                (None, 187, 64)           33024     
_________________________________________________________________
lstm_3 (LSTM)                (None, 64)                33024     
=================================================================
Total params: 82,944
Trainable params: 82,944
Non-trainable params: 0
_________________________________________________________________
Model Summary after adding fc layers and freezing layers from base model
Model: "sequential_1"
_________________________________________________________________
Layer (type)                 Output Shape              Param #   
=================================================================
lstm_1 (LSTM)                (None, 187, 64)           16896     
_________________________________________________________________
lstm_2 (LSTM)                (None, 187, 64)           33024     
_________________________________________________________________
lstm_3 (LSTM)                (None, 64)                33024     
_________________________________________________________________
dense_1 (Dense)              (None, 64)                4160      
_________________________________________________________________
batch_normalization_1 (Batch (None, 64)                256       
_________________________________________________________________
dense_2 (Dense)              (None, 64)                4160      
_________________________________________________________________
batch_normalization_2 (Batch (None, 64)                256       
_________________________________________________________________
dense_3 (Dense)              (None, 64)                4160      
_________________________________________________________________
batch_normalization_3 (Batch (None, 64)                256       
_________________________________________________________________
dense_4 (Dense)              (None, 64)                4160      
_________________________________________________________________
batch_normalization_4 (Batch (None, 64)                256       
_________________________________________________________________
dense_5 (Dense)              (None, 1)                 65        
=================================================================
Total params: 100,673
Trainable params: 17,217
Non-trainable params: 83,456
_________________________________________________________________
Best model will be saved in  optional3_LSTM.h5
Train on 10476 samples, validate on 1165 samples
Epoch 1/100
 - 19s - loss: 0.5382 - acc: 0.7238 - val_loss: 0.5778 - val_acc: 0.6996

Epoch 00001: val_acc improved from -inf to 0.69957, saving model to optional3_LSTM.h5
…
 - 17s - loss: 0.2610 - acc: 0.8801 - val_loss: 0.3332 - val_acc: 0.8644

Epoch 00048: val_acc did not improve from 0.86524
Epoch 49/100
 - 17s - loss: 0.2639 - acc: 0.8785 - val_loss: 0.3289 - val_acc: 0.8644

Epoch 00049: val_acc did not improve from 0.86524
Epoch 00049: early stopping
Test accuracy score with frozen first layers : 0.8505668155273102 
Model Summary after unfreezing layers
Model: "sequential_1"
_________________________________________________________________
Layer (type)                 Output Shape              Param #   
=================================================================
lstm_1 (LSTM)                (None, 187, 64)           16896     
_________________________________________________________________
lstm_2 (LSTM)                (None, 187, 64)           33024     
_________________________________________________________________
lstm_3 (LSTM)                (None, 64)                33024     
_________________________________________________________________
dense_1 (Dense)              (None, 64)                4160      
_________________________________________________________________
batch_normalization_1 (Batch (None, 64)                256       
_________________________________________________________________
dense_2 (Dense)              (None, 64)                4160      
_________________________________________________________________
batch_normalization_2 (Batch (None, 64)                256       
_________________________________________________________________
dense_3 (Dense)              (None, 64)                4160      
_________________________________________________________________
batch_normalization_3 (Batch (None, 64)                256       
_________________________________________________________________
dense_4 (Dense)              (None, 64)                4160      
_________________________________________________________________
batch_normalization_4 (Batch (None, 64)                256       
_________________________________________________________________
dense_5 (Dense)              (None, 1)                 65        
=================================================================
Total params: 100,673
Trainable params: 100,161
Non-trainable params: 512
_________________________________________________________________
Train on 10476 samples, validate on 1165 samples
Epoch 1/100
 - 89s - loss: 0.5037 - acc: 0.7637 - val_loss: 0.5515 - val_acc: 0.7322

Epoch 00001: val_acc did not improve from 0.86524
Epoch 2/100
…
