…
2020-03-17 03:31:46.245510: I tensorflow/compiler/xla/service/service.cc:168] XLA service 0x38ede90 executing computations on platform Host. Devices:
2020-03-17 03:31:46.245544: I tensorflow/compiler/xla/service/service.cc:175]   StreamExecutor device (0): Host, Default Version
----------------------------------------------
Loading Model : /cluster/home/bberabi/mlfhc/models/gru/best_model_GRU_mitbih_9817.h5
Model: "sequential_1"
_________________________________________________________________
Layer (type)                 Output Shape              Param #   
=================================================================
gru_1 (GRU)                  (None, 187, 64)           12672     
_________________________________________________________________
gru_2 (GRU)                  (None, 187, 64)           24768     
_________________________________________________________________
gru_3 (GRU)                  (None, 64)                24768     
_________________________________________________________________
dense_1 (Dense)              (None, 64)                4160      
_________________________________________________________________
dense_2 (Dense)              (None, 64)                4160      
_________________________________________________________________
dense_3 (Dense)              (None, 5)                 325       
=================================================================
Total params: 70,853
Trainable params: 70,853
Non-trainable params: 0
_________________________________________________________________
Model: "sequential_1"
_________________________________________________________________
Layer (type)                 Output Shape              Param #   
=================================================================
gru_1 (GRU)                  (None, 187, 64)           12672     
_________________________________________________________________
gru_2 (GRU)                  (None, 187, 64)           24768     
_________________________________________________________________
gru_3 (GRU)                  (None, 64)                24768     
=================================================================
Total params: 62,208
Trainable params: 62,208
Non-trainable params: 0
_________________________________________________________________
Model Summary after adding fc layers and freezing layers from base model
Model: "sequential_1"
_________________________________________________________________
Layer (type)                 Output Shape              Param #   
=================================================================
gru_1 (GRU)                  (None, 187, 64)           12672     
_________________________________________________________________
gru_2 (GRU)                  (None, 187, 64)           24768     
_________________________________________________________________
gru_3 (GRU)                  (None, 64)                24768     
_________________________________________________________________
dense_1 (Dense)              (None, 64)                4160      
_________________________________________________________________
batch_normalization_1 (Batch (None, 64)                256       
_________________________________________________________________
dense_2 (Dense)              (None, 64)                4160      
_________________________________________________________________
batch_normalization_2 (Batch (None, 64)                256       
_________________________________________________________________
dense_3 (Dense)              (None, 64)                4160      
_________________________________________________________________
batch_normalization_3 (Batch (None, 64)                256       
_________________________________________________________________
dense_4 (Dense)              (None, 64)                4160      
_________________________________________________________________
batch_normalization_4 (Batch (None, 64)                256       
_________________________________________________________________
dense_5 (Dense)              (None, 1)                 65        
=================================================================
Total params: 79,937
Trainable params: 17,217
Non-trainable params: 62,720
_________________________________________________________________
Best model will be saved in  optional3_GRU.h5
Train on 10476 samples, validate on 1165 samples
Epoch 1/100
 - 17s - loss: 0.4842 - acc: 0.7649 - val_loss: 0.5411 - val_acc: 0.7021

Epoch 00001: val_acc improved from -inf to 0.70215, saving model to optional3_GRU.h5
…
 - 15s - loss: 0.0891 - acc: 0.9652 - val_loss: 0.3085 - val_acc: 0.8927

Epoch 00056: val_acc did not improve from 0.89957
Epoch 57/100
 - 15s - loss: 0.0816 - acc: 0.9692 - val_loss: 0.3094 - val_acc: 0.8953

Epoch 00057: val_acc did not improve from 0.89957
Epoch 00057: early stopping
Test accuracy score with frozen first layers : 0.9185846788045345 
Model Summary after unfreezing layers
Model: "sequential_1"
_________________________________________________________________
Layer (type)                 Output Shape              Param #   
=================================================================
gru_1 (GRU)                  (None, 187, 64)           12672     
_________________________________________________________________
gru_2 (GRU)                  (None, 187, 64)           24768     
_________________________________________________________________
gru_3 (GRU)                  (None, 64)                24768     
_________________________________________________________________
dense_1 (Dense)              (None, 64)                4160      
_________________________________________________________________
batch_normalization_1 (Batch (None, 64)                256       
_________________________________________________________________
dense_2 (Dense)              (None, 64)                4160      
_________________________________________________________________
batch_normalization_2 (Batch (None, 64)                256       
_________________________________________________________________
dense_3 (Dense)              (None, 64)                4160      
_________________________________________________________________
batch_normalization_3 (Batch (None, 64)                256       
_________________________________________________________________
dense_4 (Dense)              (None, 64)                4160      
_________________________________________________________________
batch_normalization_4 (Batch (None, 64)                256       
_________________________________________________________________
dense_5 (Dense)              (None, 1)                 65        
=================================================================
Total params: 79,937
Trainable params: 79,425
Non-trainable params: 512
_________________________________________________________________
Train on 10476 samples, validate on 1165 samples
Epoch 1/100
 - 71s - loss: 0.1526 - acc: 0.9374 - val_loss: 0.2891 - val_acc: 0.9030

Epoch 00001: val_acc improved from 0.89957 to 0.90300, saving model to optional3_GRU.h5
…
