…
2020-03-17 03:31:46.331557: I tensorflow/compiler/xla/service/service.cc:168] XLA service 0x510aac0 executing computations on platform Host. Devices:
2020-03-17 03:31:46.331596: I tensorflow/compiler/xla/service/service.cc:175]   StreamExecutor device (0): Host, Default Version
----------------------------------------------
Loading Model : /cluster/home/bberabi/mlfhc/models/rnn/BestModel_RNN_mitbih_908.h5
Model: "sequential_1"
_________________________________________________________________
Layer (type)                 Output Shape              Param #   
=================================================================
simple_rnn_1 (SimpleRNN)     (None, 187, 64)           4224      
_________________________________________________________________
simple_rnn_2 (SimpleRNN)     (None, 187, 64)           8256      
_________________________________________________________________
simple_rnn_3 (SimpleRNN)     (None, 64)                8256      
_________________________________________________________________
dense_1 (Dense)              (None, 64)                4160      
_________________________________________________________________
dense_2 (Dense)              (None, 64)                4160      
_________________________________________________________________
dense_3 (Dense)              (None, 5)                 325       
=================================================================
Total params: 29,381
Trainable params: 29,381
Non-trainable params: 0
_________________________________________________________________
Model: "sequential_1"
_________________________________________________________________
Layer (type)                 Output Shape              Param #   
=================================================================
simple_rnn_1 (SimpleRNN)     (None, 187, 64)           4224      
_________________________________________________________________
simple_rnn_2 (SimpleRNN)     (None, 187, 64)           8256      
_________________________________________________________________
simple_rnn_3 (SimpleRNN)     (None, 64)                8256      
=================================================================
Total params: 20,736
Trainable params: 20,736
Non-trainable params: 0
_________________________________________________________________
Model Summary after adding fc layers and freezing layers from base model
Model: "sequential_1"
_________________________________________________________________
Layer (type)                 Output Shape              Param #   
=================================================================
simple_rnn_1 (SimpleRNN)     (None, 187, 64)           4224      
_________________________________________________________________
simple_rnn_2 (SimpleRNN)     (None, 187, 64)           8256      
_________________________________________________________________
simple_rnn_3 (SimpleRNN)     (None, 64)                8256      
_________________________________________________________________
dense_1 (Dense)              (None, 64)                4160      
_________________________________________________________________
batch_normalization_1 (Batch (None, 64)                256       
_________________________________________________________________
dense_2 (Dense)              (None, 64)                4160      
_________________________________________________________________
batch_normalization_2 (Batch (None, 64)                256       
_________________________________________________________________
dense_3 (Dense)              (None, 64)                4160      
_________________________________________________________________
batch_normalization_3 (Batch (None, 64)                256       
_________________________________________________________________
dense_4 (Dense)              (None, 64)                4160      
_________________________________________________________________
batch_normalization_4 (Batch (None, 64)                256       
_________________________________________________________________
dense_5 (Dense)              (None, 1)                 65        
=================================================================
Total params: 38,465
Trainable params: 17,217
Non-trainable params: 21,248
_________________________________________________________________
Best model will be saved in  optional3_RNN.h5
Train on 10476 samples, validate on 1165 samples
Epoch 1/100
 - 8s - loss: 0.5763 - acc: 0.6767 - val_loss: 0.5864 - val_acc: 0.6996

Epoch 00001: val_acc improved from -inf to 0.69957, saving model to optional3_RNN.h5
…
 - 7s - loss: 0.5160 - acc: 0.7264 - val_loss: 0.5311 - val_acc: 0.7082

Epoch 00018: val_acc did not improve from 0.71674
Epoch 19/100
 - 7s - loss: 0.5140 - acc: 0.7281 - val_loss: 0.5342 - val_acc: 0.7047

Epoch 00019: val_acc did not improve from 0.71674
Epoch 00019: early stopping
Test accuracy score with frozen first layers : 0.7217451047749914 
Model Summary after unfreezing layers
Model: "sequential_1"
_________________________________________________________________
Layer (type)                 Output Shape              Param #   
=================================================================
simple_rnn_1 (SimpleRNN)     (None, 187, 64)           4224      
_________________________________________________________________
simple_rnn_2 (SimpleRNN)     (None, 187, 64)           8256      
_________________________________________________________________
simple_rnn_3 (SimpleRNN)     (None, 64)                8256      
_________________________________________________________________
dense_1 (Dense)              (None, 64)                4160      
_________________________________________________________________
batch_normalization_1 (Batch (None, 64)                256       
_________________________________________________________________
dense_2 (Dense)              (None, 64)                4160      
_________________________________________________________________
batch_normalization_2 (Batch (None, 64)                256       
_________________________________________________________________
dense_3 (Dense)              (None, 64)                4160      
_________________________________________________________________
batch_normalization_3 (Batch (None, 64)                256       
_________________________________________________________________
dense_4 (Dense)              (None, 64)                4160      
_________________________________________________________________
batch_normalization_4 (Batch (None, 64)                256       
_________________________________________________________________
dense_5 (Dense)              (None, 1)                 65        
=================================================================
Total params: 38,465
Trainable params: 37,953
Non-trainable params: 512
_________________________________________________________________
Train on 10476 samples, validate on 1165 samples
Epoch 1/100
 - 22s - loss: 0.6130 - acc: 0.7133 - val_loss: 0.7469 - val_acc: 0.3013

Epoch 00001: val_acc did not improve from 0.71674
Epoch 2/100
…
