…
2020-03-17 03:34:43.350058: I tensorflow/compiler/xla/service/service.cc:168] XLA service 0x55c5d30 executing computations on platform Host. Devices:
2020-03-17 03:34:43.350082: I tensorflow/compiler/xla/service/service.cc:175]   StreamExecutor device (0): Host, Default Version
Loading Model : /cluster/home/bberabi/mlfhc/models/gru/best_model_GRU_mitbih_9817.h5
Model: "sequential_1"
_________________________________________________________________
Layer (type)                 Output Shape              Param #   
=================================================================
gru_1 (GRU)                  (None, 187, 64)           12672     
_________________________________________________________________
gru_2 (GRU)                  (None, 187, 64)           24768     
_________________________________________________________________
gru_3 (GRU)                  (None, 64)                24768     
_________________________________________________________________
dense_1 (Dense)              (None, 64)                4160      
_________________________________________________________________
dense_2 (Dense)              (None, 64)                4160      
_________________________________________________________________
dense_3 (Dense)              (None, 5)                 325       
=================================================================
Total params: 70,853
Trainable params: 70,853
Non-trainable params: 0
_________________________________________________________________
Model: "sequential_1"
_________________________________________________________________
Layer (type)                 Output Shape              Param #   
=================================================================
gru_1 (GRU)                  (None, 187, 64)           12672     
_________________________________________________________________
gru_2 (GRU)                  (None, 187, 64)           24768     
_________________________________________________________________
gru_3 (GRU)                  (None, 64)                24768     
=================================================================
Total params: 62,208
Trainable params: 62,208
Non-trainable params: 0
_________________________________________________________________
Model: "sequential_1"
_________________________________________________________________
Layer (type)                 Output Shape              Param #   
=================================================================
gru_1 (GRU)                  (None, 187, 64)           12672     
_________________________________________________________________
gru_2 (GRU)                  (None, 187, 64)           24768     
_________________________________________________________________
gru_3 (GRU)                  (None, 64)                24768     
_________________________________________________________________
dense_1 (Dense)              (None, 64)                4160      
_________________________________________________________________
batch_normalization_1 (Batch (None, 64)                256       
_________________________________________________________________
dense_2 (Dense)              (None, 64)                4160      
_________________________________________________________________
batch_normalization_2 (Batch (None, 64)                256       
_________________________________________________________________
dense_3 (Dense)              (None, 64)                4160      
_________________________________________________________________
batch_normalization_3 (Batch (None, 64)                256       
_________________________________________________________________
dense_4 (Dense)              (None, 64)                4160      
_________________________________________________________________
batch_normalization_4 (Batch (None, 64)                256       
_________________________________________________________________
dense_5 (Dense)              (None, 1)                 65        
=================================================================
Total params: 79,937
Trainable params: 79,425
Non-trainable params: 512
_________________________________________________________________
Best model will be saved in  optional2_GRU.h5
Train on 10476 samples, validate on 1165 samples
Epoch 1/200
 - 51s - loss: 0.4357 - acc: 0.7955 - val_loss: 0.4665 - val_acc: 0.7219

Epoch 00001: val_acc improved from -inf to 0.72189, saving model to optional2_GRU.h5
…
