…
2020-03-17 03:35:15.371107: I tensorflow/compiler/xla/service/service.cc:168] XLA service 0x52220b0 executing computations on platform Host. Devices:
2020-03-17 03:35:15.371142: I tensorflow/compiler/xla/service/service.cc:175]   StreamExecutor device (0): Host, Default Version
Loading Model : /cluster/home/bberabi/mlfhc/models/lstm/best_model_lstm_mitbih_976.h5
Model: "sequential_1"
_________________________________________________________________
Layer (type)                 Output Shape              Param #   
=================================================================
lstm_1 (LSTM)                (None, 187, 64)           16896     
_________________________________________________________________
lstm_2 (LSTM)                (None, 187, 64)           33024     
_________________________________________________________________
lstm_3 (LSTM)                (None, 64)                33024     
_________________________________________________________________
dense_1 (Dense)              (None, 64)                4160      
_________________________________________________________________
dense_2 (Dense)              (None, 64)                4160      
_________________________________________________________________
dense_3 (Dense)              (None, 5)                 325       
=================================================================
Total params: 91,589
Trainable params: 91,589
Non-trainable params: 0
_________________________________________________________________
Model: "sequential_1"
_________________________________________________________________
Layer (type)                 Output Shape              Param #   
=================================================================
lstm_1 (LSTM)                (None, 187, 64)           16896     
_________________________________________________________________
lstm_2 (LSTM)                (None, 187, 64)           33024     
_________________________________________________________________
lstm_3 (LSTM)                (None, 64)                33024     
=================================================================
Total params: 82,944
Trainable params: 82,944
Non-trainable params: 0
_________________________________________________________________
Model: "sequential_1"
_________________________________________________________________
Layer (type)                 Output Shape              Param #   
=================================================================
lstm_1 (LSTM)                (None, 187, 64)           16896     
_________________________________________________________________
lstm_2 (LSTM)                (None, 187, 64)           33024     
_________________________________________________________________
lstm_3 (LSTM)                (None, 64)                33024     
_________________________________________________________________
dense_1 (Dense)              (None, 64)                4160      
_________________________________________________________________
batch_normalization_1 (Batch (None, 64)                256       
_________________________________________________________________
dense_2 (Dense)              (None, 64)                4160      
_________________________________________________________________
batch_normalization_2 (Batch (None, 64)                256       
_________________________________________________________________
dense_3 (Dense)              (None, 64)                4160      
_________________________________________________________________
batch_normalization_3 (Batch (None, 64)                256       
_________________________________________________________________
dense_4 (Dense)              (None, 64)                4160      
_________________________________________________________________
batch_normalization_4 (Batch (None, 64)                256       
_________________________________________________________________
dense_5 (Dense)              (None, 1)                 65        
=================================================================
Total params: 100,673
Trainable params: 100,161
Non-trainable params: 512
_________________________________________________________________
Best model will be saved in  optional2_LSTM.h5
Train on 10476 samples, validate on 1165 samples
Epoch 1/200
 - 93s - loss: 0.5641 - acc: 0.7060 - val_loss: 0.5712 - val_acc: 0.6996

Epoch 00001: val_acc improved from -inf to 0.69957, saving model to optional2_LSTM.h5
…
